…
I0917 16:37:12.508924 31405 net.cpp:288] The NetState phase (0) differed from the phase (1) specified by a rule in layer mnist
I0917 16:37:12.508947 31405 net.cpp:288] The NetState phase (0) differed from the phase (1) specified by a rule in layer accuracy
I0917 16:37:12.509023 31405 net.cpp:42] Initializing net from parameters: 
name: "LeNet"
state {
  phase: TRAIN
}
layer {
  name: "mnist"
  type: "Data"
  top: "data"
  top: "label"
  include {
    phase: TRAIN
  }
  transform_param {
    scale: 0.00390625
  }
  data_param {
    source: "examples/mnist/mnist_train_lmdb"
    batch_size: 16
    backend: LMDB
  }
}
layer {
  name: "conv1"
  type: "Convolution"
  bottom: "data"
  top: "conv1"
  param {
    lr_mult: 1
  }
  param {
    lr_mult: 2
  }
  convolution_param {
    num_output: 20
    kernel_size: 5
    stride: 1
    weight_filler {
      type: "xavier"
    }
    bias_filler {
      type: "constant"
    }
  }
}
layer {
  name: "pool1"
  type: "Pooling"
  bottom: "conv1"
  top: "pool1"
  pooling_param {
    pool: MAX
    kernel_size: 2
    stride: 2
  }
}
layer {
  name: "conv2"
  type: "Convolution"
  bottom: "pool1"
  top: "conv2"
  param {
    lr_mult: 1
  }
  param {
    lr_mult: 2
  }
  convolution_param {
    num_output: 25
    kernel_size: 5
    stride: 1
    weight_filler {
      type: "xavier"
    }
    bias_filler {
      type: "constant"
    }
  }
}
layer {
  name: "pool2"
  type: "Pooling"
  bottom: "conv2"
  top: "pool2"
  pooling_param {
    pool: MAX
    kernel_size: 2
    stride: 2
  }
}
layer {
  name: "ip1"
  type: "InnerProduct"
  bottom: "pool2"
  top: "ip1"
  param {
    lr_mult: 1
  }
  param {
    lr_mult: 2
  }
  inner_product_param {
    num_output: 250
    weight_filler {
      type: "xavier"
    }
    bias_filler {
      type: "constant"
    }
  }
}
layer {
  name: "relu1"
  type: "ReLU"
  bottom: "ip1"
  top: "ip1"
}
layer {
  name: "ip2"
  type: "InnerProduct"
  bottom: "ip1"
  top: "ip2"
  param {
    lr_mult: 1
  }
  param {
    lr_mult: 2
  }
  inner_product_param {
    num_output: 10
    weight_filler {
      type: "xavier"
    }
    bias_filler {
      type: "constant"
    }
  }
}
layer {
  name: "loss"
  type: "SoftmaxWithLoss"
  bottom: "ip2"
  bottom: "label"
  top: "loss"
}
I0917 16:37:12.509392 31405 layer_factory.hpp:74] Creating layer mnist
I0917 16:37:12.509413 31405 net.cpp:91] Creating Layer mnist
I0917 16:37:12.509423 31405 net.cpp:369] mnist -> data
I0917 16:37:12.509448 31405 net.cpp:369] mnist -> label
I0917 16:37:12.509459 31405 net.cpp:121] Setting up mnist
I0917 16:37:12.509516 31405 db_lmdb.cpp:22] Opened lmdb examples/mnist/mnist_train_lmdb
I0917 16:37:12.509558 31405 data_layer.cpp:52] output data size: 16,1,28,28
I0917 16:37:12.509624 31405 net.cpp:128] Top shape: 16 1 28 28 (12544)
I0917 16:37:12.509637 31405 net.cpp:128] Top shape: 16 (16)
I0917 16:37:12.509646 31405 layer_factory.hpp:74] Creating layer conv1
I0917 16:37:12.509660 31405 net.cpp:91] Creating Layer conv1
I0917 16:37:12.509670 31405 net.cpp:411] conv1 <- data
I0917 16:37:12.509681 31405 net.cpp:369] conv1 -> conv1
I0917 16:37:12.509696 31405 net.cpp:121] Setting up conv1
I0917 16:37:12.510010 31405 net.cpp:128] Top shape: 16 20 24 24 (184320)
I0917 16:37:12.510032 31405 layer_factory.hpp:74] Creating layer pool1
I0917 16:37:12.510043 31405 net.cpp:91] Creating Layer pool1
I0917 16:37:12.510051 31405 net.cpp:411] pool1 <- conv1
I0917 16:37:12.510061 31405 net.cpp:369] pool1 -> pool1
I0917 16:37:12.510071 31405 net.cpp:121] Setting up pool1
I0917 16:37:12.510087 31405 net.cpp:128] Top shape: 16 20 12 12 (46080)
I0917 16:37:12.510107 31405 layer_factory.hpp:74] Creating layer conv2
I0917 16:37:12.510118 31405 net.cpp:91] Creating Layer conv2
I0917 16:37:12.510125 31405 net.cpp:411] conv2 <- pool1
I0917 16:37:12.510134 31405 net.cpp:369] conv2 -> conv2
I0917 16:37:12.510145 31405 net.cpp:121] Setting up conv2
I0917 16:37:12.510238 31405 net.cpp:128] Top shape: 16 25 8 8 (25600)
I0917 16:37:12.510257 31405 layer_factory.hpp:74] Creating layer pool2
I0917 16:37:12.510268 31405 net.cpp:91] Creating Layer pool2
I0917 16:37:12.510277 31405 net.cpp:411] pool2 <- conv2
I0917 16:37:12.510285 31405 net.cpp:369] pool2 -> pool2
I0917 16:37:12.510294 31405 net.cpp:121] Setting up pool2
I0917 16:37:12.510305 31405 net.cpp:128] Top shape: 16 25 4 4 (6400)
I0917 16:37:12.510313 31405 layer_factory.hpp:74] Creating layer ip1
I0917 16:37:12.510324 31405 net.cpp:91] Creating Layer ip1
I0917 16:37:12.510334 31405 net.cpp:411] ip1 <- pool2
I0917 16:37:12.510344 31405 net.cpp:369] ip1 -> ip1
I0917 16:37:12.510354 31405 net.cpp:121] Setting up ip1
I0917 16:37:12.510926 31405 net.cpp:128] Top shape: 16 250 (4000)
I0917 16:37:12.510942 31405 layer_factory.hpp:74] Creating layer relu1
I0917 16:37:12.510956 31405 net.cpp:91] Creating Layer relu1
I0917 16:37:12.510963 31405 net.cpp:411] relu1 <- ip1
I0917 16:37:12.510972 31405 net.cpp:358] relu1 -> ip1 (in-place)
I0917 16:37:12.510982 31405 net.cpp:121] Setting up relu1
I0917 16:37:12.510993 31405 net.cpp:128] Top shape: 16 250 (4000)
I0917 16:37:12.510999 31405 layer_factory.hpp:74] Creating layer ip2
I0917 16:37:12.511008 31405 net.cpp:91] Creating Layer ip2
I0917 16:37:12.511014 31405 net.cpp:411] ip2 <- ip1
I0917 16:37:12.511023 31405 net.cpp:369] ip2 -> ip2
I0917 16:37:12.511034 31405 net.cpp:121] Setting up ip2
I0917 16:37:12.511059 31405 net.cpp:128] Top shape: 16 10 (160)
I0917 16:37:12.511067 31405 layer_factory.hpp:74] Creating layer loss
I0917 16:37:12.511080 31405 net.cpp:91] Creating Layer loss
I0917 16:37:12.511088 31405 net.cpp:411] loss <- ip2
I0917 16:37:12.511096 31405 net.cpp:411] loss <- label
I0917 16:37:12.511107 31405 net.cpp:369] loss -> loss
I0917 16:37:12.511119 31405 net.cpp:121] Setting up loss
I0917 16:37:12.511131 31405 layer_factory.hpp:74] Creating layer loss
…
I0917 16:37:12.511463 31405 solver.cpp:154] Creating test net (#0) specified by net file: examples/mnist/lenet_train_test_baseline.prototxt
I0917 16:37:12.511494 31405 net.cpp:288] The NetState phase (1) differed from the phase (0) specified by a rule in layer mnist
I0917 16:37:12.511561 31405 net.cpp:42] Initializing net from parameters: 
name: "LeNet"
state {
  phase: TEST
}
layer {
  name: "mnist"
  type: "Data"
  top: "data"
  top: "label"
  include {
    phase: TEST
  }
  transform_param {
    scale: 0.00390625
  }
  data_param {
    source: "examples/mnist/mnist_test_lmdb"
    batch_size: 100
    backend: LMDB
  }
}
layer {
  name: "conv1"
  type: "Convolution"
  bottom: "data"
  top: "conv1"
  param {
    lr_mult: 1
  }
  param {
    lr_mult: 2
  }
  convolution_param {
    num_output: 20
    kernel_size: 5
    stride: 1
    weight_filler {
      type: "xavier"
    }
    bias_filler {
      type: "constant"
    }
  }
}
layer {
  name: "pool1"
  type: "Pooling"
  bottom: "conv1"
  top: "pool1"
  pooling_param {
    pool: MAX
    kernel_size: 2
    stride: 2
  }
}
layer {
  name: "conv2"
  type: "Convolution"
  bottom: "pool1"
  top: "conv2"
  param {
    lr_mult: 1
  }
  param {
    lr_mult: 2
  }
  convolution_param {
    num_output: 25
    kernel_size: 5
    stride: 1
    weight_filler {
      type: "xavier"
    }
    bias_filler {
      type: "constant"
    }
  }
}
layer {
  name: "pool2"
  type: "Pooling"
  bottom: "conv2"
  top: "pool2"
  pooling_param {
    pool: MAX
    kernel_size: 2
    stride: 2
  }
}
layer {
  name: "ip1"
  type: "InnerProduct"
  bottom: "pool2"
  top: "ip1"
  param {
    lr_mult: 1
  }
  param {
    lr_mult: 2
  }
  inner_product_param {
    num_output: 250
    weight_filler {
      type: "xavier"
    }
    bias_filler {
      type: "constant"
    }
  }
}
layer {
  name: "relu1"
  type: "ReLU"
  bottom: "ip1"
  top: "ip1"
}
layer {
  name: "ip2"
  type: "InnerProduct"
  bottom: "ip1"
  top: "ip2"
  param {
    lr_mult: 1
  }
  param {
    lr_mult: 2
  }
  inner_product_param {
    num_output: 10
    weight_filler {
      type: "xavier"
    }
    bias_filler {
      type: "constant"
    }
  }
}
layer {
  name: "accuracy"
  type: "Accuracy"
  bottom: "ip2"
  bottom: "label"
  top: "accuracy"
  include {
    phase: TEST
  }
}
layer {
  name: "loss"
  type: "SoftmaxWithLoss"
  bottom: "ip2"
  bottom: "label"
  top: "loss"
}
I0917 16:37:12.511961 31405 layer_factory.hpp:74] Creating layer mnist
I0917 16:37:12.511976 31405 net.cpp:91] Creating Layer mnist
I0917 16:37:12.511986 31405 net.cpp:369] mnist -> data
I0917 16:37:12.511997 31405 net.cpp:369] mnist -> label
I0917 16:37:12.512007 31405 net.cpp:121] Setting up mnist
I0917 16:37:12.512042 31405 db_lmdb.cpp:22] Opened lmdb examples/mnist/mnist_test_lmdb
I0917 16:37:12.512063 31405 data_layer.cpp:52] output data size: 100,1,28,28
I0917 16:37:12.512373 31405 net.cpp:128] Top shape: 100 1 28 28 (78400)
I0917 16:37:12.512390 31405 net.cpp:128] Top shape: 100 (100)
I0917 16:37:12.512399 31405 layer_factory.hpp:74] Creating layer label_mnist_1_split
I0917 16:37:12.512408 31405 net.cpp:91] Creating Layer label_mnist_1_split
I0917 16:37:12.512416 31405 net.cpp:411] label_mnist_1_split <- label
I0917 16:37:12.512425 31405 net.cpp:369] label_mnist_1_split -> label_mnist_1_split_0
I0917 16:37:12.512435 31405 net.cpp:369] label_mnist_1_split -> label_mnist_1_split_1
I0917 16:37:12.512444 31405 net.cpp:121] Setting up label_mnist_1_split
I0917 16:37:12.512459 31405 net.cpp:128] Top shape: 100 (100)
I0917 16:37:12.512466 31405 net.cpp:128] Top shape: 100 (100)
I0917 16:37:12.512473 31405 layer_factory.hpp:74] Creating layer conv1
I0917 16:37:12.512483 31405 net.cpp:91] Creating Layer conv1
I0917 16:37:12.512491 31405 net.cpp:411] conv1 <- data
I0917 16:37:12.512501 31405 net.cpp:369] conv1 -> conv1
I0917 16:37:12.512511 31405 net.cpp:121] Setting up conv1
I0917 16:37:12.512532 31405 net.cpp:128] Top shape: 100 20 24 24 (1152000)
I0917 16:37:12.512544 31405 layer_factory.hpp:74] Creating layer pool1
I0917 16:37:12.512553 31405 net.cpp:91] Creating Layer pool1
I0917 16:37:12.512562 31405 net.cpp:411] pool1 <- conv1
I0917 16:37:12.512570 31405 net.cpp:369] pool1 -> pool1
I0917 16:37:12.512579 31405 net.cpp:121] Setting up pool1
I0917 16:37:12.512589 31405 net.cpp:128] Top shape: 100 20 12 12 (288000)
I0917 16:37:12.512598 31405 layer_factory.hpp:74] Creating layer conv2
I0917 16:37:12.512616 31405 net.cpp:91] Creating Layer conv2
I0917 16:37:12.512626 31405 net.cpp:411] conv2 <- pool1
I0917 16:37:12.512635 31405 net.cpp:369] conv2 -> conv2
I0917 16:37:12.512645 31405 net.cpp:121] Setting up conv2
I0917 16:37:12.512732 31405 net.cpp:128] Top shape: 100 25 8 8 (160000)
I0917 16:37:12.512748 31405 layer_factory.hpp:74] Creating layer pool2
I0917 16:37:12.512773 31405 net.cpp:91] Creating Layer pool2
I0917 16:37:12.512784 31405 net.cpp:411] pool2 <- conv2
I0917 16:37:12.512792 31405 net.cpp:369] pool2 -> pool2
I0917 16:37:12.512804 31405 net.cpp:121] Setting up pool2
I0917 16:37:12.512814 31405 net.cpp:128] Top shape: 100 25 4 4 (40000)
I0917 16:37:12.512821 31405 layer_factory.hpp:74] Creating layer ip1
I0917 16:37:12.512832 31405 net.cpp:91] Creating Layer ip1
I0917 16:37:12.512840 31405 net.cpp:411] ip1 <- pool2
I0917 16:37:12.512850 31405 net.cpp:369] ip1 -> ip1
I0917 16:37:12.512861 31405 net.cpp:121] Setting up ip1
I0917 16:37:12.513442 31405 net.cpp:128] Top shape: 100 250 (25000)
I0917 16:37:12.513458 31405 layer_factory.hpp:74] Creating layer relu1
I0917 16:37:12.513470 31405 net.cpp:91] Creating Layer relu1
I0917 16:37:12.513478 31405 net.cpp:411] relu1 <- ip1
I0917 16:37:12.513486 31405 net.cpp:358] relu1 -> ip1 (in-place)
I0917 16:37:12.513495 31405 net.cpp:121] Setting up relu1
I0917 16:37:12.513504 31405 net.cpp:128] Top shape: 100 250 (25000)
I0917 16:37:12.513510 31405 layer_factory.hpp:74] Creating layer ip2
I0917 16:37:12.513521 31405 net.cpp:91] Creating Layer ip2
I0917 16:37:12.513528 31405 net.cpp:411] ip2 <- ip1
I0917 16:37:12.513537 31405 net.cpp:369] ip2 -> ip2
I0917 16:37:12.513546 31405 net.cpp:121] Setting up ip2
I0917 16:37:12.513577 31405 net.cpp:128] Top shape: 100 10 (1000)
I0917 16:37:12.513591 31405 layer_factory.hpp:74] Creating layer ip2_ip2_0_split
I0917 16:37:12.513599 31405 net.cpp:91] Creating Layer ip2_ip2_0_split
I0917 16:37:12.513607 31405 net.cpp:411] ip2_ip2_0_split <- ip2
I0917 16:37:12.513617 31405 net.cpp:369] ip2_ip2_0_split -> ip2_ip2_0_split_0
I0917 16:37:12.513627 31405 net.cpp:369] ip2_ip2_0_split -> ip2_ip2_0_split_1
I0917 16:37:12.513635 31405 net.cpp:121] Setting up ip2_ip2_0_split
I0917 16:37:12.513644 31405 net.cpp:128] Top shape: 100 10 (1000)
I0917 16:37:12.513653 31405 net.cpp:128] Top shape: 100 10 (1000)
I0917 16:37:12.513659 31405 layer_factory.hpp:74] Creating layer accuracy
I0917 16:37:12.513669 31405 net.cpp:91] Creating Layer accuracy
I0917 16:37:12.513676 31405 net.cpp:411] accuracy <- ip2_ip2_0_split_0
I0917 16:37:12.513684 31405 net.cpp:411] accuracy <- label_mnist_1_split_0
I0917 16:37:12.513694 31405 net.cpp:369] accuracy -> accuracy
I0917 16:37:12.513703 31405 net.cpp:121] Setting up accuracy
…
